data.pth (torch, 7999 bytes, 6 tensors)

l1.weight f4 [8, 116]
0.40772572 0.4517477 -0.5292391 -0.101584464 -0.28466734 -0.16673423 -0.034710936 0.17706235
-0.4458137 -0.25240874 -0.17609057 -0.9095648 0.25450906 -0.066699736 -0.49240246 0.29513806
-0.56419486 -0.42094436 0.0059728418 -0.09803675 -0.44642898 -0.21656594 0.3254324 0.6218835
0.7134526 -0.200374 0.8041858 0.44194707 0.4691464 -0.29267752 0.5168803 0.4930456
-0.010138759 0.7112399 -0.18180819 0.4923987 0.40551132 0.25189242 -0.13156289 -0.49810657
-0.37420103 0.6641784 -0.78349125 0.29561827 -0.055754103 0.24207246 0.30799806 0.58585614
0.25918055 0.30487978 0.27288544 1.0 -0.18919423 -0.23586507 0.97246253 0.7087639
0.42627844 0.28450158 -0.3621213 0.47473776 0.06056874 -0.040044185 -0.537488 0.2654076
0.089842945 0.26217028 0.84218746 -0.59106755 0.036558744 -0.15384208 0.34881946 -0.2514674
-0.32174036 -0.23161012 -0.0895787 -0.24780965 -0.2936161 -0.35617846 0.30255917 -0.2465624
-0.15659 0.34117016 0.30802497 -0.38664207 0.61732984 -0.026473405 0.27987647 -0.18376788
0.11551341 0.24719378 0.49545202 0.03669046 -0.49321195 0.5922983 0.6166274 0.44332606
-0.050551232 0.18977392 0.20995803 0.41004252 0.12671517 0.35475105 -0.19873345 0.09457385
-0.41214073 0.18154353 0.24893925 0.49518862 0.09673039 0.2731723 0.45888543 0.62804204
-0.28288943 -0.46918678 0.26402166 -0.1140917 -0.2614596 -0.32170016 0.43345195 -0.096523486
0.39960787 0.07811503 -0.09718523 -0.023095796 0.43590066 -0.060094554 0.8640687 0.69393146
1.1888076 0.19214748 0.7735544 0.6686586 0.40189624 0.6531854 -0.67938685 0.037661467
0.46025735 0.32614443 0.14223272 0.29485196 -0.64626986 0.5036824 0.16907561 -0.113033555
-0.20158917 0.49586135 -0.97134084 -0.11540396 0.085926265 -0.4154043 0.2695999 -0.46353042
-0.19293344 1.2005503 0.051207293 0.59492964 -0.41729742 -0.062099364 0.59140277 0.086707346
-0.4759522 0.20441838 0.1289508 0.29672587 0.80301195 0.08565765 1.1494194 -0.11266859
-0.3540991 -0.37927148 -0.071724884 -0.14161046 -0.17613405 0.041617908 0.5328743 -0.0011966075
0.011057337 -0.29987073 0.36523274 0.2016761 0.17154819 -0.2468912 0.0824763 0.3816684
0.32829216 0.21968406 -0.17555957 0.28941074 0.45283705 0.29583648 -0.26355407 0.07749883
0.68389046 0.24379955 0.4522097 0.3086714 0.01851288 0.44655594 1.2477312 0.5994353
-0.588124 0.4898585 -0.054195605 -0.3437005 1.2401568 0.48938107 0.2919078 0.3711441
0.63469553 -0.39261383 -0.71349996 -0.24560648 0.20503849 0.09884594 0.55938625 -0.052323435
-0.7511304 0.12777816 -0.34851864 -0.14991997 0.3859103 -0.73084563 0.45415142 0.6839447
-0.08367465 0.87120175 0.38234958 -0.52606314 0.15741546 0.50801617 0.37466285 0.42512485
0.085832916 0.20349471 -0.40406185 0.26114622 -0.219034 0.4534021 0.48245448 0.2395688
-0.24262175 0.7838925 -0.34986088 0.105052575 -0.7584588 0.3215291 1.1990125 0.0028904749
-0.117925 -0.5272196 0.95820427 0.2260064 -0.14305532 -0.9531296 1.0104889 -0.41288948
00000000: 6dc1 d03e 794b e73e 377c 07bf 840b d0bd
00000010: ebbf 91be 61bc 2abe 0e2d 0ebd d54f 353e
00000020: b141 e4be b83b 81be 1651 34be 3dd9 68bf
00000030: 034f 823e df99 88bd 2d1c fcbe 561c 973e
00000040: 136f 10bf 0586 d7be d4b7 c33b 7ec7 c8bd
00000050: 5792 e4be 76c3 5dbe 139f a63e c233 1f3f
00000060: d4a4 363f d82e 4dbe 1fdf 4d3f e346 e23e
00000070: f533 f03e d4d9 95be 4452 043f 7970 fc3e
00000080: 0a1d 26bc d113 363f ed2b 3abe af1b fc3e
00000090: 2e9f cf3e 0bf8 803e 6cb8 06be d307 ffbe
000000a0: 4797 bfbe 9807 2a3f e292 48bf 475b 973e
000000b0: 6a5e 64bd d8e1 773e ecb1 9d3e abfa 153f
000000c0: 50b3 843e 3419 9c3e a4b7 8b3e 0000 803f
000000d0: 22bc 41be 9d86 71be 4ef3 783f 8d71 353f
000000e0: 2b41 da3e 31aa 913e f767 b9be d410 f33e
000000f0: ed16 783d 5f05 24bd d098 09bf 81e3 873e
00000100: 94ff b73d 2f3b 863e 9999 573f 3450 17bf
00000110: 9fbe 153d c788 1dbe 7798 b23e 56c0 80be
00000120: 27bb a4be 342b 6dbe 0a75 b7bd d0c1 7dbe
00000130: d954 96be 065d b6be 09e9 9a3e db7a 7cbe
00000140: 2159 20be dbad ae3e 73b5 9d3e f3f5 c5be
00000150: 5409 1e3f c1de d8bc f84b 8f3e a62d 3cbe
00000160: 4b92 ec3d 5e20 7d3e e3ab fd3e bc48 163d
00000170: 4786 fcbe dda0 173f 4bdb 1d3f a2fb e23e
00000180: cf0e 4fbd 1854 423e 3dff 563e 18f1 d13e
00000190: 9fc1 013e eea1 b53e c880 4bbe efaf c13d
000001a0: 1c04 d3be 8ce6 393e eee9 7e3e 5d89 fd3e
000001b0: 951a c63d 3ddd 8b3e 08f3 ea3e 5dc7 203f
000001c0: e2d6 90be 4039 f0be d92d 873e e9a8 e9bd
000001d0: 08de 85be e2b5 a4be 6aed dd3e 1bae c5bd
000001e0: 6799 cc3e c6fa 9f3d 0d09 c7bd 6533 bdbc
000001f0: 5f2e df3e b525 76bd 9b33 5d3f 7ea5 313f
00000200: d92a 983f 4fc2 443e a907 463f 362d 2b3f
00000210: 58c5 cd3e 2937 273f 4cec 2dbf e942 1a3d
00000220: daa6 eb3e 67fc a63e 74a5 113e d6f6 963e
00000230: f171 25bf 54f1 003f 2822 2d3e 237e e7bd
00000240: 646d 4ebe 8ae1 fd3e cba9 78bf e958 ecbd
00000250: 1cfa af3d dfaf d4be 0009 8a3e dc53 edbe
00000260: 5890 45be a2ab 993f bdbe 513d 4f4d 183f
00000270: 02a8 d5be e75b 7ebd 2c66 173f 9f93 b13d
00000280: 02b0 f3be 0d53 513e ae0b 043e 74ec 973e
00000290: 3192 4d3f 476d af3d 2d20 933f cabe e6bd
000002a0: 7a4c b5be df2f c2be 7fe4 92bd 5502 11be
000002b0: 7c5c 34be 8a77 2a3d 736a 083f 7cd7 9cba
000002c0: d529 353c a888 99be c9ff ba3e 2e84 4e3e
000002d0: 54aa 2f3e 0cd1 7cbe 56e9 a83d 0a6a c33e
000002e0: e915 a83e dcf4 603e e3c5 33be a52d 943e
000002f0: 42da e73e e177 973e 8ff0 86be b5b7 9e3d
00000300: 7213 2f3f 97a6 793e 0888 e73e 2e0a 9e3e
00000310: 53a8 973c fba2 e43e a8b5 9f3f 9874 193f
00000320: 4b8f 16bf bcce fa3e 36fc 5dbd 83f9 afbe
00000330: 75bd 9e3f 2890 fa3e f074 953e 9906 be3e
00000340: 687b 223f ae04 c9be efa7 36bf 4480 7bbe
00000350: 9cf5 513e bd6f ca3d f033 0f3f 1951 56bd
00000360: 154a 40bf 47d8 023e 0971 b2be 9f84 19be
00000370: 0996 c53e b318 3bbf 8986 e83e 0017 2f3f
00000380: 9d5d abbd 1407 5f3f 53c3 c33e 13ac 06bf
00000390: 8531 213e 590d 023f cfd3 bf3e f7a9 d93e
000003a0: 2bc9 af3d eb60 503e 32e1 cebe f5b4 853e
000003b0: 734a 60be 5224 e83e 4604 f73e 8651 753e
000003c0: d671 78be 2ead 483f f720 b3be ce25 d73d
000003d0: 5b2a 42bf 769f a43e 3e79 993f 1f6e 3d3b
000003e0: aa82 f1bd ddf7 06bf e04c 753f 396e 673e
000003f0: 187d 12be 4d00 74bf b357 813f 4066 d3be

l1.bias f4 [8]
0.47950584 1.2544042 0.7532433 0.6961145 0.51701653 0.7683817 0.9718294 0.9561375
00000000: ca81 f53e 5190 a03f 8ed4 403f 8f34 323f
00000010: 325b 043f aab4 443f d0c9 783f 6dc5 743f

l2.weight f4 [8, 8]
0.53600055 0.7204033 1.6277204 -0.94009817 0.46915245 0.8106395 0.09942563 1.4557581
0.08466387 -0.26816761 0.07966247 0.07980758 -0.2392669 -0.1774502 -0.11531049 -0.2760913
0.7917369 1.283047 -1.68397 2.0916002 -0.68659663 1.7814795 0.037508916 -0.96916
-1.1073444 0.39482105 1.1279422 0.54259044 -0.4090508 2.1302242 1.0192765 -0.46175075
-0.90713423 0.5594604 -1.0703021 0.35422733 -0.6731014 -1.0343621 1.7483575 1.0726339
-1.3828348 1.7132624 -0.08960358 0.7083369 -0.91147673 -0.5368782 0.47238794 0.363625
-0.0815342 0.029101508 0.09451993 0.19157252 -0.25759584 -0.18258558 -0.30585572 -0.36084864
-0.49197477 -0.2570118 1.039055 1.32188 2.2403543 -0.15928535 1.9398227 -1.246262
00000000: 5537 093f 5a6c 383f 2459 d03f 46aa 70bf
00000010: c034 f03e 1286 4f3f aa9f cb3d 4856 ba3f
00000020: 4064 ad3d 444d 89be 1426 a33d 2872 a33d
00000030: 6202 75be 81b5 35be e827 ecbd d75b 8dbe
00000040: 45af 4a3f e23a a43f 548c d7bf c7dc 0540
00000050: ccc4 2fbf 8507 e43f f3a2 193d df1a 78bf
00000060: 76bd 8dbf fc25 ca3e 6960 903f 35e7 0a3f
00000070: 1b6f d1be 9855 0840 a777 823f 986a ecbe
00000080: f339 68bf cc38 0f3f a9ff 88bf 495d b53e
00000090: 6050 2cbf fa65 84bf 2eca df3f 114c 893f
000000a0: bb00 b1bf 2f4c db3f 1582 b7bd 9155 353f
000000b0: 8a56 69bf da70 09bf d5dc f13e 0e2d ba3e
000000c0: 67fb a6bd 4966 ee3c aa93 c13d 962b 443e
000000d0: 9ae3 83be b7f7 3abe 1f99 9cbe 27c1 b8be
000000e0: 1ee4 fbbe 0d97 83be c1ff 843f 5d33 a93f
000000f0: f761 0f40 b31b 23be 1c4c f83f 8385 9fbf

l2.bias f4 [8]
0.9806334 -0.1849246 0.525497 -0.067993514 0.12786816 0.930859 -0.2903275 0.34994495
00000000: ca0a 7b3f e05c 3dbe f986 063f 2f40 8bbd
00000010: dfef 023e c74c 6e3f cea5 94be fc2b b33e

l3.weight f4 [14, 8]
-1.9184593 -0.24325824 -0.19367607 -0.7331287 0.83240056 0.38366187 0.24883951 0.1500711
0.82364446 0.015992045 -1.8005885 -2.873798 0.44410577 -1.9454406 0.054842897 -0.17214404
-0.5980069 0.3395302 -0.03296896 0.73032176 -2.9189045 0.017879417 0.17395686 -0.8798548
-1.3855116 -0.34796348 -0.409231 0.7426445 -1.8266181 -1.8377873 0.1526908 0.627044
-0.06469392 0.35261443 -1.2783059 -1.3921274 0.58706313 0.5729862 0.29301688 -1.3804232
-1.2550197 -0.12371309 0.69396776 -0.5804159 -0.61800724 0.80680156 -0.2920653 -1.4087356
-1.538956 -0.09030637 0.9872368 0.5847381 -2.019213 -1.9484001 -0.36988822 -0.89928406
-2.3208346 -0.18882845 0.7521636 -0.5310701 -2.239072 -1.3369327 -0.16578719 0.7280654
-0.8563339 0.017712384 -1.2349489 0.13491666 -0.82604676 0.46894586 -0.37158108 0.5637048
0.4768834 0.28667888 -1.6916076 -0.14445634 -2.8636684 0.6277417 0.2646086 -1.2720081
-0.35394678 -0.07949507 -2.246674 0.036995694 0.7991514 0.30149734 -0.18964002 -0.50908023
0.12376806 -0.08726674 0.5468599 -1.9864624 -1.6292839 -1.5009377 -0.095377184 -0.7987076
-1.9837193 0.23851791 0.48524562 0.33195943 -0.7404466 -0.09849573 0.05109965 0.14935005
0.039158728 0.043389082 -1.8968542 -0.7240602 -3.0319722 -1.9046459 -0.36304316 1.0363268
00000000: 1390 f5bf b018 79be 0553 46be 53ae 3bbf
00000010: 3418 553f 546f c43e c9cf 7e3e 3dac 193e
00000020: 5dda 523f c001 833c af79 e6bf 4eec 37c0
00000030: d561 e33e 3304 f9bf f2a2 603d 8746 30be
00000040: fb16 19bf e7d6 ad3e 760a 07bd 5ef6 3a3f
00000050: 55cf 3ac0 db77 923c bf21 323e 2a3e 61bf
00000060: 7258 b1bf 4528 b2be ba86 d1be f31d 3e3f
00000070: 9fce e9bf 9d3c ebbf fa5a 1c3e f585 203f
00000080: 3f7e 84bd e189 b43e 879f a3bf 3b31 b2bf
00000090: c549 163f 39af 123f 4f06 963e b5b1 b0bf
000000a0: 7ca4 a0bf 4a5d fdbd dfa7 313f 2396 14bf
000000b0: b935 1ebf 8c8a 4e3f 9589 95be 7351 b4bf
000000c0: 83fc c4bf 8cf2 b8bd 8dbb 7c3f 65b1 153f
000000d0: c93a 01c0 2d65 f9bf fd61 bdbe 7b37 66bf
000000e0: 8e88 14c0 3f5c 41be cb8d 403f 36f4 07bf
000000f0: f54c 0fc0 9c20 abbf 1ec4 29be 7e62 3a3f
00000100: b338 5bbf 9019 913c ce12 9ebf 9827 0a3e
00000110: cd77 53bf ac19 f03e e03f bebe f54e 103f
00000120: 102a f43e 93c7 923e 9986 d8bf 5dec 13be
00000130: 5846 37c0 aeb3 203f c77a 873e 29d1 a2bf
00000140: 8338 b5be 50ce a2bd 82c9 0fc0 cc88 173d
00000150: 3095 4c3f dc5d 9a3e fe30 42be 1553 02bf
00000160: 1c7a fd3d e8b8 b2bd 03ff 0b3f 6644 febf
00000170: 608c d0bf ba1e c0bf 1d55 c3bd 1a78 4cbf
00000180: 84ea fdbf 0a3e 743e 1d72 f83e 96f6 a93e
00000190: e98d 3dbf 21b8 c9bd de4d 513d 38ef 183e
000001a0: e764 203d c0b8 313d 1ecc f2bf 025c 39bf
000001b0: d50b 42c0 70cb f3bf cbe0 b9be 5ba6 843f

l3.bias f4 [14]
-0.79496735 0.18132755 -0.19672023 -0.8513783 0.16411309 -0.25130367 -0.016599573 -0.24891762
-0.21156776 1.0006562 -0.5732294 0.81652576 -0.9002435 0.4429721
00000000: fb82 4bbf eead 393e 0771 49be eef3 59bf
00000010: 430d 283e e0aa 80be d4fb 87bc 43e4 7ebe
00000020: 38a5 58be 8115 803f 29bf 12bf d507 513f
00000030: 5c76 66bf 3dcd e23e
