data.pth (torch, 7103 bytes, 6 tensors)

l1.weight f4 [8, 96]
000000 dc 29 6f be 14 c9 f3 be 87 bf 14 bf 90 83 d4 3e
       -0.23355812 -0.47614348 -0.5810475 0.41506624
000010 4a eb f0 3e 3b e2 31 3f 2c 99 f9 3e 6d 1d 8e be
       0.4705451 0.69485825 0.48749673 -0.27756825
000020 25 0f 6c bd 9b 70 c2 3e 35 af 0c 3f 73 e9 8c 3f
       -0.05763163 0.37976536 0.54954845 1.1008743
000030 0a 1d d4 3e f7 17 d1 be bd 0c 06 3f 23 60 18 be
       0.41428405 -0.40838596 0.5236319 -0.14880423
000040 fd d0 dd be df 46 83 3e 87 73 e6 3e f9 8e 97 bd
       -0.43323508 0.25640008 0.45010015 -0.07400317
000050 96 bf 0d 3f a7 33 7a 3f 7d 48 09 bf 0e 8e da be
       0.5537046 0.97735065 -0.53626233 -0.42686504
000060 fa bf 5e 3f 99 4b da 3e 06 8c a2 be 93 0d cd be
       0.87011683 0.426358 -0.31747454 -0.4004942
000070 a2 9f 0b bf e3 d7 ac bd 09 45 a9 3e 65 00 9a be
       -0.54540455 -0.084396146 0.33060482 -0.30078426
000080 c7 ed 98 be 01 c5 9b be 46 64 7b 3f 38 d1 93 3d
       -0.2986891 -0.3042374 0.9819988 0.0721764
000090 3f 90 cd be c0 08 11 3f 83 a2 23 3f 9d 56 a0 3e
       -0.40149114 0.56653976 0.6391985 0.3131608
0000a0 84 d2 75 3f 03 57 35 be 22 2e 51 3f ab c2 68 3f
       0.96024346 -0.17708974 0.8171102 0.9092204
0000b0 07 34 99 3e 84 97 2a 3e 81 68 f6 3e 62 ef 3f 3f
       0.29922506 0.16659361 0.48126605 0.74974644
0000c0 f0 5d d4 be df 00 f9 3e b8 f7 d2 be 53 ab 8f be
       -0.4147792 0.48633477 -0.4120462 -0.28060398
0000d0 f7 6d bc be 98 03 61 bc 44 7f d7 be 45 fb 4b bd
       -0.36802647 -0.013733767 -0.42089283 -0.049800176
0000e0 5e 1f a8 3e 49 67 b1 be a9 2e 05 3f b1 13 18 3f
       0.3283643 -0.34649113 0.5202432 0.59405047
0000f0 cf 8e c0 be 30 5a b3 be e0 91 d3 be 6c 00 a6 be
       -0.37608954 -0.35029745 -0.4132223 -0.32422197
000100 b3 85 a1 bd 0b 6c 29 3f 8c 3e 34 3f f2 70 cf 3e
       -0.07886829 0.66180485 0.7040794 0.40515858
000110 86 9a 80 3f bc 9e 85 be 9f 75 dc 3e f5 6c 52 be
       1.0047157 -0.26097667 0.43058488 -0.20549376
000120 86 3f 7d 3e 50 6a bf 3e eb 98 84 bc 5f a0 7a be
       0.24731264 0.37385798 -0.016186198 -0.24475239
000130 47 c7 c7 be cf 34 df be 6e 9d 68 bf 0a 29 4a be
       -0.39019224 -0.43594977 -0.9086522 -0.19742218
000140 03 3b 84 3e 35 75 17 3f 4d 90 bb bd 58 f5 5d be
       0.25826272 0.5916322 -0.091583826 -0.21675622
000150 07 39 97 3e 32 02 4d 3f e2 4c 31 3d d8 4c 7f 3f
       0.29535696 0.80081475 0.04328621 0.9972663
000160 65 a1 76 be 9b 96 cb bd 5e 6f 2f 3f 4c cf 8b be
       -0.24085005 -0.09940835 0.6852931 -0.27306592
000170 ae c2 ab be 2f f1 09 3f d3 4f 94 3e 08 a8 a3 3e
       -0.33546966 0.5388364 0.2896715 0.31964135
000180 a8 35 97 bd 71 c2 01 bd 0e 34 37 3f 78 e4 12 bc
       -0.07383281 -0.031679574 0.71563804 -0.008965604
000190 84 c0 d0 3e ac 41 d9 3d 80 e7 bf 3e 60 bc 4c 3f
       0.40771878 0.10608229 0.37481308 0.7997494
0001a0 0f a2 8c be 5c a1 38 bf 6f 04 b6 3e 15 ad af 3e
       -0.2746739 -0.72121215 0.35550258 0.3431174
0001b0 67 de bb 3e e2 4d 3c bf 6a f3 43 3e 15 39 30 3f
       0.36693117 -0.7355634 0.19135824 0.688371
0001c0 6c e7 47 3f ac 34 0d bf a3 91 87 bc 23 08 28 3f
       0.78087497 -0.55158496 -0.016548937 0.65637416
0001d0 13 ba 13 bf ce f1 6e bd 73 ef c6 3f e7 e2 54 be
       -0.577058 -0.05833607 1.5541824 -0.20789681
0001e0 35 5d 3c bf 7c de 81 3d 20 da 63 3f f9 dd 3d 3f
       -0.7357972 0.06341264 0.8900471 0.7416683
0001f0 4f b0 cd 3e cf e8 49 3f bd 68 9b be 1f 78 84 3f
       0.40173575 0.7887086 -0.30353346 1.0349158
000200 0b b8 d1 3d e7 be 36 3f 5c 5d a3 3e bf 7d 32 3f
       0.102401815 0.71385044 0.31907165 0.69723123
000210 f4 76 3c bf 14 77 49 3f a2 4d a0 be a1 69 fe bd
       -0.7361901 0.78697324 -0.3130923 -0.12422491
000220 73 a9 00 3f 3b c1 3e be 82 e9 0a 3f 4d e0 e0 3e
       0.5025856 -0.18628399 0.54262555 0.43921128
000230 23 d0 80 3e 60 f6 3c 3f 66 43 d5 3e c1 1b 88 be
       0.25158796 0.7381344 0.41652983 -0.26583675
000240 62 84 c0 3c 1d a1 06 be c2 14 f9 3c 2d 6a 0e bf
       0.023500625 -0.13147397 0.030405406 -0.5563076
000250 12 f7 4b 3f 5b a9 5e be cc 10 56 3f c7 b9 66 be
       0.79673874 -0.21744291 0.8361938 -0.22531806
000260 97 b0 67 be 6a 81 36 3f 19 d7 71 3c 45 3d 15 3e
       -0.22625957 0.7129122 0.014760756 0.14574154
000270 4d 89 38 3f 43 d4 fe 3e b7 97 a6 3f a3 73 ed 3e
       0.72084504 0.49771318 1.301505 0.46377286
000280 d3 41 3b be 42 ef 24 be 3b e6 9b 3e 1d 72 ed 3e
       -0.18286829 -0.16106895 0.3044909 0.46376124
000290 f1 04 13 3e 83 24 ef be bb be 02 3d c4 05 2b 3f
       0.14357354 -0.46707544 0.031920176 0.6680567
0002a0 d4 6d 42 3f 95 c7 c0 3e 80 55 04 bd 2b ca 92 3f
       0.75948834 0.3765227 -0.0323081 1.1467947
0002b0 4e 6d 3c bf 02 36 ab 3c 51 4e f7 be da 2d e5 bd
       -0.73604286 0.020899776 -0.48301938 -0.11190386
0002c0 42 ca c8 3e ad 47 66 3e 2b 45 40 3e cc 27 47 3f
       0.3921681 0.2248828 0.18776385 0.777951
0002d0 e7 57 0f bf d4 f1 77 bc 9c b9 d1 3d c0 68 88 bf
       -0.55993503 -0.01513334 0.1024048 -1.0656967
0002e0 0a 55 1f 3f 1a 40 7e 3f 34 fc 01 bf bc 24 5a be
       0.62239134 0.9931656 -0.50775456 -0.21303076
0002f0 93 e7 1a 3f 81 13 61 bf a6 4a 93 3e 25 64 00 3f
       0.60509604 -0.87920386 0.2876789 0.5015281
000300 83 21 d7 bd 70 57 cd be e6 73 56 3f e5 2c bd 3e
       -0.10504439 -0.40105772 0.83770597 0.36948314
000310 27 2c 26 3f 39 59 4e 3e 5a cf d8 3e 09 35 51 3f
       0.6491112 0.20151223 0.42345697 0.8172155
000320 66 dd 0b bf 91 cf 58 bf d4 49 82 3f da 08 7d 3f
       -0.546347 -0.8469172 1.017878 0.9884163
000330 a3 be 3a 3f 5b bb 32 bf 53 3c 43 3f 2a b1 19 3f
       0.7294714 -0.6981713 0.7626392 0.60035956
000340 d1 25 22 3f db d3 43 bf 00 03 ed 3e c2 2e 2b 3f
       0.63338953 -0.7649514 0.4629135 0.6686822
000350 9b 3e ad be 2d d7 45 be 7b 2e 5c be 97 ea f0 be
       -0.33836827 -0.19320364 -0.21502106 -0.47053978
000360 12 d8 fa be 92 d4 71 3e 3c 81 78 be c9 5c 44 3f
       -0.48992974 0.23616245 -0.24268049 0.7670408
000370 24 f5 13 bf 28 4c e0 bd 2e 77 9e be 97 32 11 be
       -0.5779593 -0.10952026 -0.30950302 -0.14179455
000380 c3 17 78 be aa b4 63 be f0 39 81 3f a2 dc 0f 3f
       -0.24227814 -0.22236887 1.0095806 0.56196034
000390 ca bb 32 bf 12 75 80 3f 12 67 65 3e 9a 0f bc be
       -0.69817793 1.0035727 0.224026 -0.36730653
0003a0 c3 28 31 3f 28 72 82 3c 44 44 32 3f fe de 2d 3f
       0.6920282 0.015923575 0.69635415 0.67918384
0003b0 c6 f6 df be 63 96 21 3f 9b 9a f5 3e 60 71 d8 3e
       -0.4374296 0.63120097 0.47969517 0.42273998
0003c0 b7 8c b0 be ee 57 bb 3e c5 de c7 be b7 a8 16 bf
       -0.34482357 0.36590523 -0.39037147 -0.5885119
0003d0 8d e8 73 bd 52 3a 25 3d a9 8d 49 3f e2 58 0c bd
       -0.05954795 0.04033882 0.7873178 -0.034264453
0003e0 de bc e7 be 12 d5 6f be 0f 08 ae 3c 10 34 e7 3e
       -0.45261282 -0.23421124 0.021244077 0.45156908
0003f0 7b 79 2b 3f 4c 7e bc 3e e6 54 a6 3f b6 97 ea 3e
       0.6698224 0.36815107 1.2994659 0.4581887

l1.bias f4 [8]
000000 35 fb 55 3f f2 01 3c 3f 68 0a 33 3f 93 a4 44 3f
       0.83586437 0.7344047 0.69937754 0.7681362
000010 24 00 32 3f 1e 3d d3 3e 30 90 53 3f 7b 30 66 3f
       0.69531465 0.41257566 0.8264189 0.89917725

l2.weight f4 [8, 8]
000000 a4 99 b1 3e af 6a 80 bf e5 7c 85 bf 57 4b 33 3f
       0.3468753 -1.0032557 -1.042874 0.70036834
000010 08 dd b5 3e 6d 14 df 3e 16 27 36 bf 28 2f cc 3f
       0.35520196 0.4357027 -0.7115339 1.5951891
000020 b8 db cb bc 15 2d fc bd 48 09 c2 bd 29 5b fb bc
       -0.024885044 -0.12313286 -0.094744265 -0.030683117
000030 00 dd 78 bd dc f6 9e be 15 2b 2f 3e 00 a3 a8 be
       -0.060757637 -0.31047714 0.17106278 -0.3293686
000040 82 7c d3 3e b3 fd 39 bf 91 51 1b 3e 07 06 53 bf
       0.4130593 -0.7265274 0.15167834 -0.8243107
000050 f0 0a a4 3f 21 15 16 3f 5d b7 fb 3f b1 aa d4 3e
       1.2815838 0.5862599 1.9665333 0.41536477
000060 b4 dc 3b 3d 7b 99 0e 40 5d 3e d2 3f 0e 7a c3 3f
       0.045864776 2.2281177 1.6425282 1.5271623
000070 58 82 dd 3f ee 2a 8b 3c e8 f4 c5 be 26 04 b1 bf
       1.7305403 0.016988244 -0.3866341 -1.3829391
000080 4a 1d a6 3f c5 16 0a 3d 4e ea b4 3f c9 55 89 bf
       1.2977688 0.03371312 1.4134004 -1.0729305
000090 94 c2 8f 3f ae 4a 0f 3e 23 a8 36 3f f8 05 06 be
       1.1231256 0.13993332 0.71350306 -0.13088214
0000a0 f5 b0 a2 3d d5 bc 97 be a5 53 20 3d 97 a8 7e bf
       0.07943908 -0.29636255 0.03914227 -0.99476
0000b0 05 76 51 3f 16 7d cd 3f ea 04 a9 3f 31 28 3a 3f
       0.8182071 1.6053798 1.3204625 0.7271758
0000c0 2a 60 bb 3f 77 f3 33 bf df af 27 bd 60 0e a0 3f
       1.4638722 -0.7029337 -0.040939208 1.2504387
0000d0 43 db 6b bf 14 ab a5 bf 54 f7 8e 3f 95 48 db 3f
       -0.9213144 -1.2942834 1.1169229 1.7131525
0000e0 25 0d 73 3f 17 8f f9 be 1a 1a 57 3f 24 4f 77 3f
       0.9494193 -0.4874198 0.840242 0.96605134
0000f0 97 f0 20 be cb 93 7e bf a3 f8 73 bf e4 49 a4 3f
       -0.15716778 -0.99444264 -0.95301265 1.283505

l2.bias f4 [8]
000000 72 88 30 3f c7 21 d8 be 3b 02 2f 3d 48 2a fb 3e
       0.689582 -0.4221327 0.042726737 0.49055696
000010 97 dc 3a be 29 6d ba 3e 11 3c 3a 3f d3 6f d3 3e
       -0.18248211 0.36411408 0.72747904 0.41296253

l3.weight f4 [13, 8]
000000 a7 df b1 be da 0b bd be 2a 45 0b 3f 8c 2f ff bf
       -0.34740946 -0.36923105 0.5440241 -1.9936385
000010 d1 a8 42 3e 71 fb 07 3e 37 36 10 be 9a 44 b5 be
       0.19009711 0.13279511 -0.14083181 -0.354039
000020 49 33 0a c0 36 c1 18 be db e3 95 3e 04 67 1b bd
       -2.1593802 -0.14917454 0.29275402 -0.03794004
000030 59 40 e7 bf 37 e2 0b bf 56 d3 5c 3f 0f af 45 bf
       -1.8066512 -0.5464205 0.86259973 -0.77220243
000040 14 fb 32 3f 18 31 44 3e 0d d2 f3 bf c3 ab e6 bf
       0.69914365 0.19159353 -1.9048477 -1.8021168
000050 a8 fc ea bf 8b 6d 0c c0 42 44 35 3f 1e bd 2c 3f
       -1.8358355 -2.194186 0.7080728 0.6747607
000060 2e b5 18 c0 88 1c 2f 3e e0 62 15 bf 6e ab 98 3e
       -2.3860583 0.17100728 -0.58353996 0.2981829
000070 79 0e 18 3f 90 dd 70 bd 49 fd a9 bf 04 1c 46 bf
       0.59397084 -0.05880505 -1.3280421 -0.773865
000080 2b 07 0b c0 71 be 9a bc ca 62 ed 3e 4a cb 26 bf
       -2.1723125 -0.018889638 0.46364433 -0.65153944
000090 b8 54 e0 3e aa 1d 25 bd 77 c3 9b be 64 60 2b be
       0.43814635 -0.040311493 -0.30422565 -0.16735989
0000a0 7e b3 ae bf f9 ac 72 3e 1b 6d f7 bf f3 67 9f 3f
       -1.3648527 0.23698796 -1.9330171 1.2453598
0000b0 09 2a 16 c0 be 02 71 bf 02 39 91 bf 72 ec ec bf
       -2.3463156 -0.9414481 -1.1345522 -1.8509657
0000c0 0e 90 17 3f fb 10 c9 be 1f fc 7b 3d 9a 89 34 bf
       0.59204185 -0.39270768 0.06151974 -0.70522463
0000d0 45 88 c2 bf d8 43 53 3f 2b 98 cd bf d7 a7 2b bf
       -1.5197836 0.82525396 -1.6062063 -0.6705298
0000e0 f8 41 05 3f 80 b7 4e 3d 77 03 9b 3e 5a 66 0e c0
       0.52053785 0.050467968 0.3027608 -2.224997
0000f0 cc 4d 24 c0 77 c0 04 3d 63 5c c3 3e bc 8a 9c 3d
       -2.5672483 0.03241011 0.38156423 0.07643649
000100 63 79 7e be 17 39 92 be e0 70 18 c0 ab ba 45 be
       -0.24850993 -0.2855918 -2.3818893 -0.1930949
000110 df f5 84 be 11 04 d4 bf ec b5 69 3e a7 d6 e1 3e
       -0.25968835 -1.6563741 0.22823304 0.4410908
000120 42 d7 35 c0 8b db 96 be 3f 91 15 bf 80 8b 7e 3e
       -2.8412633 -0.29464373 -0.5842475 0.24857903
000130 ea 08 b8 3d e1 db 81 bf 0f e7 20 bf 4b 9e f9 3e
       0.08986075 -1.0145227 -0.6285257 0.4875358
000140 97 77 56 bf bc 4c 0f 3e 5b e6 0c bf 13 9a e2 bf
       -0.8377623 0.13994116 -0.55038995 -1.770327
000150 fc 4d 01 3e c4 0d 64 bf 37 e6 11 3f 84 0c fb 3e
       0.12627405 -0.89083505 0.56991905 0.49032986
000160 2c 7b bc bf dd 69 95 bd 36 c6 33 c0 f7 4d 46 3f
       -1.4725089 -0.072955824 -2.8089728 0.77462715
000170 91 ac c1 3d 20 99 08 c0 19 89 12 c0 17 29 30 3e
       0.094567426 -2.134346 -2.2896178 0.17203175
000180 79 a6 d0 bf 01 54 9c be 98 51 5d 3f f4 c3 72 bf
       -1.6300803 -0.3053284 0.8645263 -0.9483025
000190 ac 89 b8 3e be b5 5b 3f 08 67 fa bf 9e bb b6 bf
       0.36042535 0.8582419 -1.9562693 -1.4276006

l3.bias f4 [13]
000000 f3 4c d0 be 12 41 8a 3e cb 20 ea be d4 13 b9 be
       -0.40683708 0.2700277 -0.45728144 -0.3614794
000010 b3 32 c8 be 56 85 d0 3e 41 88 b6 3e 4e 9a 9f 3c
       -0.3910118 0.40726727 0.35650828 0.019482758
000020 b7 ea 47 3e c1 d8 cc be 14 ce 1a bf 7c 75 8b bd
       0.1952313 -0.4000912 -0.604707 -0.06809518
000030 ac 93 57 bd
       -0.052631065
