data.pth (torch, 9535 bytes, 6 tensors)

l1.weight f4 [8, 143]
-0.6937729 -0.6331126 0.4075126 -0.93466824 -0.70372194 0.333808 -0.03861159 0.24234976
0.54859084 0.8093625 0.4078929 0.6318718 -0.32837966 0.3569833 -0.4681116 -0.34087506
-0.44358605 -0.08066719 0.16489825 0.83883905 0.27164173 -0.70901275 0.7386349 -0.9006836
-0.6085187 0.43663034 0.65225106 -0.8705531 0.26684543 0.623772 0.39347708 0.8945118
0.20972343 0.42379832 -0.0034882687 0.3772621 0.71284103 -0.14068998 0.66672045 0.9099034
0.6984938 0.39614397 0.73670936 -0.07433571 1.1506919 0.3095529 -0.5974862 -0.5964519
0.9321482 -0.39563924 0.1196151 -0.09522129 -0.75066924 -0.006655656 0.06983018 0.6934849
0.9983903 0.27310652 0.99053085 0.98900974 0.52433413 0.69718593 0.2362305 0.56888884
0.40674037 -0.026650976 0.41072285 0.07463351 -0.21205142 -0.20197707 -0.62351424 0.25137913
-0.6650054 0.6781437 -0.07852951 0.777658 -0.0128521025 -0.41824976 0.4037279 0.33134165
-0.116659455 -0.44988972 0.36494997 0.5392933 -0.30031878 -0.6038326 0.66521305 0.27255172
0.2317689 0.87024075 0.46819082 0.91062653 0.46841994 -0.4517416 -0.22945444 0.4282457
-0.54567426 -0.28934532 0.35503024 -0.28081003 -0.050276987 -0.32214457 0.2593956 0.4537994
0.16654323 -0.547772 0.39151663 0.38990673 -0.07035973 -0.19508874 -0.012734878 -0.16850276
-0.23787251 -0.49058282 -0.38934034 -0.5936371 0.48239174 0.8143633 0.034002166 -0.29655612
-1.2139174 -0.67739534 -0.3351686 0.7267959 0.23226531 0.75846845 0.29278997 -0.57332546
-0.17976743 0.38396317 -0.12071727 0.09607234 0.19777437 0.06515674 0.9380394 -0.671784
-0.06544695 0.37868392 -0.77280235 0.61152464 1.0075855 0.39292002 0.24642499 0.7266122
0.82540953 0.024383677 1.050866 0.7174135 0.8333807 -0.08625253 0.577304 -0.533706
-0.15610191 0.0013670783 -0.08038862 0.51783437 -0.13760209 0.70958656 -0.20668292 0.33683813
-0.35291755 0.05801483 -0.677184 0.1681295 1.0161397 0.4384518 0.60293764 0.8237047
0.8132673 0.24905095 1.4053805 0.26497874 0.0676937 -0.4198259 -0.22978663 -0.013712751
0.7994479 -0.15941536 0.5970228 -0.05337821 0.3514185 -0.17972945 -0.15063359 0.014731027
1.3055141 -0.15176938 0.49940544 -0.33527446 0.11218792 -0.15218216 0.71156347 -0.34843755
-0.16578792 -0.11291025 -0.3528522 0.015076175 0.18906955 0.27452007 -0.7522667 -0.34197623
0.60926706 -0.34792507 -0.34956092 -0.14324644 -0.30627933 0.07227693 -0.014862401 0.14512964
-0.40090904 -0.20211302 0.9948975 0.30118272 0.2717995 0.8789176 0.5644667 0.4975019
0.020929117 -0.265702 -0.04198905 0.517507 0.19312003 -0.024416067 0.4671738 0.45532
0.28484017 -0.109031826 0.05743937 0.2118318 -0.04203865 0.63701 0.53352976 0.14689383
0.15578613 0.4818767 0.7241187 0.40606806 0.26017436 0.74400353 0.28218013 0.70910895
0.042620704 -0.078954026 -0.5091574 -0.17271283 0.46732292 0.5663694 -0.08098126 -0.27833846
-0.42279547 0.010672862 -0.39765352 -0.262004 0.38386902 -0.0044375537 -0.07052529 0.28395873
00000000: 1a9b 31bf ab13 22bf 7ea5 d03e 6b46 6fbf
00000010: 1f27 34bf e2e8 aa3e 3027 1ebd 892a 783e
00000020: 7370 0c3f 6132 4f3f 57d7 d03e 5ac2 213f
00000030: 6121 a8be 84c6 b63e 53ac efbe 2d87 aebe
00000040: b61d e3be d734 a5bd 16db 283e 28be 563f
00000050: a014 8b3e dc81 35bf 2d17 3d3f 3393 66bf
00000060: e2c7 1bbf 038e df3e edf9 263f 91dc 5ebf
00000070: f79f 883e 86af 1f3f d475 c93e bafe 643f
00000080: bdc1 563e 18fc d83e 709b 64bb 7f28 c13e
00000090: c07c 363f 0911 10be 31ae 2a3f 6eef 683f
000000a0: 7dd0 323f 62d3 ca3e fc98 3c3f 523d 98bd
000000b0: df49 933f b87d 9e3e dbf4 18bf 12b1 18bf
000000c0: 44a1 6e3f 3a91 cabe c3f8 f43d 6103 c3bd
000000d0: dc2b 40bf b017 dabb 2003 8f3d 3a88 313f
000000e0: 8296 7f3f 9ed4 8b3e 6e93 7d3f be2f 7d3f
000000f0: c33a 063f c77a 323f 68e6 713e b3a2 113f
00000100: 4640 d03e 2653 dabc 444a d23e 74d9 983d
00000110: 0224 59be 14d3 4ebe a19e 1fbf c4b4 803e
00000120: cb3d 2abf d39a 2d3f 14d4 a0bd 9814 473f
00000130: a091 52bc d524 d6be 6cb5 ce3e 9da5 a93e
00000140: 27eb eebd f257 e6be b9da ba3e 200f 0a3f
00000150: 62c3 99be c694 1abf 674b 2a3f e68b 8b3e
00000160: d454 6d3e 19c8 5e3f b5b6 ef3e d21e 693f
00000170: bdd4 ef3e ad4a e7be 1bf6 6abe 0543 db3e
00000180: 4fb1 0bbf 1225 94be 86c6 b53e 55c6 8fbe
00000190: 3eef 4dbd 22f0 a4be 80cf 843e 6558 e83e
000001a0: 4f8a 2a3e c93a 0cbf de74 c83e dba1 c73e
000001b0: c318 90bd 58c5 47be f3a5 50bc fd8b 2cbe
000001c0: da94 73be ac2d fbbe 9e57 c7be 9af8 17bf
000001d0: 0dfc f63e 1d7a 503f db45 0b3d 34d6 97be
000001e0: a561 9bbf c869 2dbf 389b abbe 4c0f 3a3f
000001f0: f5d6 6d3e fd2a 423f 91e8 953e 75c5 12bf
00000200: f414 38be d296 c43e 9e3a f7bd 93c1 c43d
00000210: 5d85 4a3e e670 853d 5a23 703f 09fa 2bbf
00000220: 0d09 86bd dce2 c13e 60d6 45bf e18c 1c3f
00000230: 90f8 803f d02c c93e d556 7c3e 4203 3a3f
00000240: 0a4e 533f 47c0 c73c c782 863f 69a8 373f
00000250: 7058 553f 2ba5 b0bd 32ca 133f f5a0 08bf
00000260: 2ed9 1fbe 892f b33a caa2 a4bd cb90 043f
00000270: 90e7 0cbe 77a7 353f b0a4 53be 0c76 ac3e
00000280: 9cb1 b4be f5a0 6d3d ee5b 2dbf 242a 2c3e
00000290: de10 823f c17c e03e 1f5a 1a3f 50de 523f
000002a0: 4932 503f 3607 7f3e 82e3 b33f 4bab 873e
000002b0: ffa2 8a3d 6cf3 d6be 304d 6bbe 72ab 60bc
000002c0: 9ea8 4c3f c83d 23be 7cd6 183f 1ca3 5abd
000002d0: 20ed b33e ff0a 38be b13f 1abe 685a 713c
000002e0: 161b a73f 6f69 1bbe 12b2 ff3e 18a9 abbe
000002f0: c8c2 e53d a4d5 1bbe 0629 363f 6866 b2be
00000300: 4fc4 29be 7d3d e7bd 0ba9 b4be 1002 773c
00000310: 739b 413e e58d 8c3e 8d94 40bf 8217 afbe
00000320: edf8 1b3f 3c23 b2be a6f9 b2be 32af 12be
00000330: a5d0 9cbe ed05 943d 6e81 73bc dd9c 143e
00000340: f343 cdbe b7f6 4ebe 9ab1 7e3f 9f34 9a3e
00000350: 4e29 8b3e be00 613f e480 103f 92b8 fe3e
00000360: 8a73 ab3c 180a 88be b6fc 2bbd 577b 043f
00000370: 42c1 453e 3404 c8bc 6831 ef3e b41f e93e
00000380: 92d6 913e 144c dfbd 8b45 6b3d 6fea 583e
00000390: b830 2cbd 1613 233f 6895 083f 566b 163e
000003a0: 6686 1f3e 8bb8 f63e d85f 393f 27e8 cf3e
000003b0: 9335 853e 0477 3e3f ea79 903e 2a88 353f
000003c0: 0c93 2e3d a6b2 a1bd 2458 02bf a2db 30be
000003d0: f344 ef3e 96fd 103f 81d9 a5bd 6182 8ebe
000003e0: a678 d8be 3add 2e3c 3e99 cbbe 6325 86be
000003f0: 7b8a c43e e668 91bb 906f 90bd 0a63 913e

l1.bias f4 [8]
1.150116 0.3491815 0.3947386 0.40785205 0.5550093 1.0932221 0.8778572 0.76736224
00000000: 0037 933f ebc7 b23e 2e1b ca3e fcd1 d03e
00000010: 1715 0e3f b4ee 8b3f 40bb 603f da71 443f

l2.weight f4 [8, 8]
2.0282009 -0.9868119 -0.90686643 -0.9464135 -0.24062538 0.29324344 1.9465266 1.0212038
-0.07320567 -0.8437743 0.08189614 0.28036806 1.2102354 1.1188793 -2.37256 0.089368984
-1.5020036 -0.06520607 0.8620227 0.8320003 -0.20516276 -0.048512015 1.2177024 1.513509
0.041796483 1.8670763 2.7254183 0.77667195 1.9870186 -0.028767006 0.2524622 -0.098132625
-0.43376 1.3967869 -1.0391939 1.4961952 -0.22968236 2.0590103 -0.42808518 0.3296084
0.15491562 -0.09639657 -1.1493713 -0.061815277 -1.8771492 0.5818952 0.43539503 1.1376115
0.5870269 0.06628908 -1.1910032 1.4357814 0.2356954 -1.5256472 0.75542206 1.6032689
0.21787159 0.9776439 -0.20228788 0.85578454 2.293652 -1.4585356 0.3848745 0.878329
00000000: 0bce 0140 b49f 7cbf 6628 68bf 2848 72bf
00000010: 8066 76be 0124 963e c927 f93f ceb6 823f
00000020: dbec 95bd 9801 58bf 2ab9 a73d 678c 8f3e
00000030: fee8 9a3f 7037 8f3f 06d8 17c0 1607 b73d
00000040: a741 c0bf c38a 85bd 85ad 5c3f f9fd 543f
00000050: 3016 52be 89b4 46bd acdd 9b3f aaba c13f
00000060: ca32 2b3d 5bfc ee3f 416d 2e40 f9d3 463f
00000070: a056 fe3f c9a8 ebbc ba42 813e c2f9 c8bd
00000080: ca15 debe eac9 b23f 4e04 85bf 5383 bf3f
00000090: da31 6bbe d3c6 0340 fb2d dbbe 6fc2 a83e
000000a0: 33a2 1e3e 916b c5bd 991e 93bf 0432 7dbd
000000b0: 6d46 f0bf 15f7 143f 19ec de3e 419d 913f
000000c0: 6547 163f 92c2 873d cb72 98bf afc7 b73f
000000d0: 235a 713e 6848 c3bf 5763 413f ea37 cd3f
000000e0: bb19 5f3e df46 7a3f 8e24 4fbe b214 5b3f
000000f0: 32cb 1240 4bb1 babf 450e c53e 2bda 603f

l2.bias f4 [8]
1.1215034 0.87820756 0.31847504 -0.59605926 0.6994096 -0.43621352 -0.4065673 -0.034926917
00000000: 6c8d 8f3f 36d2 603f 290f a33e 5797 18bf
00000010: 820c 333f 6157 dfbe 9729 d0be 870f 0fbd

l3.weight f4 [18, 8]
0.52600425 -1.2368482 0.42042562 -2.142111 -2.6203556 -0.060694583 0.66024876 0.3493489
0.52042484 -2.1291232 -0.4487143 -0.278564 -2.0903919 -3.7500973 0.7094623 0.38517576
-0.07913608 -1.528692 -2.4391432 0.14803302 0.90136915 -0.9664477 -2.1245797 -0.015931591
-1.3455714 -0.43122822 -1.5660528 -0.078508206 0.12715231 -1.4730899 0.68211883 0.37574247
-0.41060904 -1.856181 0.40879187 -0.82296014 -0.57283294 -0.8044684 0.61203825 0.3750528
-1.3257041 -2.6337652 0.38430235 0.24953991 -1.7110262 -3.0997632 0.45849743 0.5351781
0.3473431 -2.0760639 0.5252594 -1.3781092 -0.24468711 0.12819995 -0.14298852 -1.0878178
0.6531764 -2.4823828 0.8325007 -0.011774868 -0.6552204 -2.2781746 -1.164556 -0.5920852
1.4683151 -1.6208725 -2.3386612 -1.167818 -2.6946557 -1.0684054 0.33971643 -0.21837872
-1.3939745 -2.239326 0.9631025 0.5437162 0.07343174 -3.3442698 -1.6428758 -1.6401466
-2.1422017 -2.217954 0.43683028 -0.15453523 0.3030824 -0.34533042 -0.15348639 -0.014645426
0.5391006 1.6697785 -2.0052505 -2.6517417 0.89407754 -3.0898333 -1.1323864 -0.6607346
1.0895349 -1.660104 -2.5848453 -1.8001876 0.17775522 0.782126 -2.6262693 -0.8146085
-0.32318532 -0.02124646 -0.36501527 -0.8149086 0.7150392 0.49584156 -0.24508357 -0.7034204
-1.8572794 0.25964484 -2.010935 1.0443599 0.088861376 -2.398012 -0.80882275 -1.7132972
0.406293 -1.3167716 -1.7832273 0.7984038 -2.163742 -3.7322986 -0.98624766 0.4844099
-2.6190522 0.49781555 -0.1713474 0.03329038 0.5621212 -2.3116796 -1.8181703 0.32486734
-1.2629132 -1.6253146 0.15427591 0.631649 -0.86043733 -3.3201098 -1.7946959 0.49821275
00000000: 37a8 063f 0b51 9ebf 0742 d73e 5918 09c0
00000010: e8b3 27c0 e29a 78bd 1006 293f dcdd b23e
00000020: 903a 053f 8e43 08c0 e1bd e5be f19f 8ebe
00000030: fbc8 05c0 9801 70c0 529f 353f c235 c53e
00000040: 1912 a2bd 2eac c3bf ec1a 1cc0 f895 173e
00000050: 21c0 663f 1e69 77bf 1df9 07c0 f882 82bc
00000060: af3b acbf f2c9 dcbe 6b74 c8bf e9c8 a0bd
00000070: 3734 023e 368e bcbf 579f 2e3f 5161 c03e
00000080: 593b d2be 5797 edbf 2b4d d13e 84ad 52bf
00000090: 2ea5 12bf a4f1 4dbf 8aae 1c3f ec06 c03e
000000a0: acb0 a9bf 9c8f 28c0 47c3 c43e 6487 7f3e
000000b0: e802 dbbf 8562 46c0 2dc0 ea3e 6f01 093f
000000c0: f4d6 b13e 3bde 04c0 6677 063f e265 b0bf
000000d0: 428f 7abe d946 033e 956b 12be 9d3d 8bbf
000000e0: 9236 273f 5cdf 1ec0 c41e 553f 60eb 40bc
000000f0: 86bc 27bf 9dcd 11c0 2c10 95bf e592 17bf
00000100: c0f1 bb3f c078 cfbf a0ac 15c0 0f7b 95bf
00000110: 3d75 2cc0 82c1 88bf 50ef ad3e ac9e 5fbe
00000120: c26d b2bf 1e51 0fc0 e38d 763f fc30 0b3f
00000130: 6163 963d 8408 56c0 c149 d2bf 53f0 d1bf
00000140: d519 09c0 f5f2 0dc0 38a8 df3e 7c3e 1ebe
00000150: 9e2d 9b3e 26cf b0be 892b 1dbe 5ef3 6fbc
00000160: 7f02 0a3f 4dbb d53f 0656 00c0 23b6 29c0
00000170: 44e2 643f d4bf 45c0 0af2 90bf e725 29bf
00000180: e175 8b3f 4a7e d4bf 1b6e 25c0 8c6c e6bf
00000190: 7705 363e 6939 483f cc14 28c0 2f8a 50bf
000001a0: 8c78 a5be 0e0d aebc 48e3 babe da9d 50bf
000001b0: cf0c 373f f2de fd3e 30f7 7abe 5c13 34bf
000001c0: 55bb edbf 2bf0 843e 29b3 00c0 96ad 853f
000001d0: f4fc b53d 0779 19c0 020f 4fbf 534d dbbf
000001e0: a305 d03e f98b a8bf cb40 e4bf 3164 4c3f
000001f0: c07a 0ac0 fbdd 6ec0 ba7a 7cbf 9304 f83e
00000200: 8d9e 27c0 aee1 fe3e b175 2fbe 7e5b 083d
00000210: 2de7 0f3f 8ff2 13c0 ceb9 e8bf 0355 a63e
00000220: 24a7 a1bf 4f0a d0bf 81fa 1d3e c0b3 213f
00000230: 9f45 5cbf ae7c 54c0 98b8 e5bf be15 ff3e

l3.bias f4 [18]
-0.20528723 -0.28614512 0.7752185 -0.10472598 -0.695318 -0.38307607 -0.1633532 0.174659
0.3794803 0.035477415 -0.68748814 1.3579321 -0.22798523 -0.28370103 0.03223228 0.44864768
-0.13437447 -0.17777386
00000000: d136 52be 9d81 92be b874 463f 937a d6bd
00000010: 5c00 32bf 8c22 c4be 1046 27be cfd9 323e
00000020: 3e4b c23e c450 113d 39ff 2fbf b8d0 ad3f
00000030: f674 69be 4341 91be ff05 043d 26b5 e53e
00000040: 7699 09be 5a0a 36be
