data.pth (torch, 9535 bytes, 6 tensors)

l1.weight f4 [8, 143]
0	0xbe55f8bf	-0.2089567
1	0xbed825c8	-0.42216325
2	0xbe0f2590	-0.13979173
3	0xbf2c5fe7	-0.67333835
4	0xbd9c7abf	-0.076405995
5	0xbebc1604	-0.36735547
6	0x3edfefb1	0.43737558
7	0x3e1a9abe	0.15098092
8	0xbedcc856	-0.43121594
9	0x3dd47c5d	0.10375283
10	0xbf1734bb	-0.59064835
11	0xbeddd3fc	-0.43325794
12	0x3eeae8e7	0.45880815
13	0x3f38087f	0.71887964
14	0x3ee54d84	0.44785702
15	0x3f9bfcf1	1.2186567
16	0x3f147cbe	0.5800284
17	0x3f5887cc	0.8458221
18	0x3ed8fdbd	0.42381087
19	0xbf482154	-0.78175855
20	0xbec9f372	-0.39443547
21	0xbebf3b58	-0.37349963
22	0xbf18ff13	-0.5976421
23	0xbe9b0e67	-0.30284426
24	0x3edf8307	0.43654653
25	0xbed5ea97	-0.4178054
26	0xbf10e1df	-0.5659465
27	0xbf9077c1	-1.1286546
28	0xbeaceb78	-0.33773398
29	0xbe0bfe04	-0.13671118
30	0x3f26c9a4	0.6515143
31	0xbe4d9e3d	-0.20079894
32	0x3e97a4a9	0.29617813
33	0x3d548a19	0.051889513
34	0x3ec08c51	0.37607053
35	0xbee93f81	-0.45556262
36	0x3f1a4f3c	0.6027715
37	0x3efbf762	0.49212176
38	0x3ef6f6e1	0.4823523
39	0xbf812e8b	-1.0092329
40	0xbf01a32b	-0.506396
41	0xbe31c064	-0.17358547
42	0x3f2cc317	0.67485183
43	0x3e83bb3f	0.25728795
44	0x3f4915db	0.78548974
45	0xbeb594b6	-0.3546502
46	0xbdbd9e6d	-0.09258733
47	0xbf31d18e	-0.6946038
48	0x3f0c0d03	0.54707354
49	0x3fb1761d	1.386417
50	0xbe55fa18	-0.20896184
51	0x3f56d715	0.8392194
52	0xbf70cfd6	-0.9406713
53	0x3ec6b0f8	0.3880689
54	0xbe0fd07b	-0.14044373
55	0x3f3fa97a	0.74867976
56	0xbebc9f25	-0.36840168
57	0xbe8a3dcc	-0.27000272
58	0xbee70708	-0.45122552
59	0xbed51e34	-0.41624606
60	0xbdf2c80b	-0.118545614
61	0xbdc02bbc	-0.09383342
62	0x3ed12cb5	0.4085442
63	0x3e8a7e0f	0.270493
64	0x3eaa54a8	0.33267713
65	0x3ecd4dcd	0.4009842
66	0xbe9cbce0	-0.3061285
67	0xbe9d3af1	-0.3070903
68	0x3ece4ef1	0.40294603
69	0x3ebbb92f	0.3666472
70	0xbeddb0bd	-0.43298903
71	0xbdabdf22	-0.083921686
72	0xbd894368	-0.0670231
73	0x3e8535e5	0.2601768
74	0x3f215b86	0.6303028
75	0x3f1d6093	0.61475486
76	0x3d02c7c9	0.03192881
77	0x3f0f41d1	0.559598
78	0xbe34311c	-0.17596859
79	0x3eb23ddb	0.34812817
80	0x3e92d949	0.286814
81	0xbcff7c6c	-0.031187259
82	0xbe6ed48e	-0.2332327
83	0xbf01621c	-0.5054033
84	0x3ed6b522	0.41935068
85	0xbe0d3195	-0.13788445
86	0xbe800c25	-0.25009266
87	0x3c1c8c10	0.009554878
88	0xbea388ee	-0.31940407
89	0x3dc951da	0.09830065
90	0xbef059df	-0.46943566
91	0xbf0c178e	-0.5472344
92	0xbec9ce1f	-0.3941507
93	0x3f10f8f8	0.56629896
94	0x3f7b3cd6	0.98139703
95	0x3ee851d5	0.45374933
96	0x3f1bbcc5	0.60834914
97	0x3f22c6d0	0.63584614
98	0x3cb6d380	0.022317648
99	0x3f26fd2b	0.65230054
100	0x3e202bc5	0.15641697
101	0x3f03ddc7	0.5151028
102	0x3d5b3703	0.05351926
103	0xbe434a5a	-0.19071332
104	0x3ed80bf3	0.42196617
105	0x3fba899f	1.4573249
106	0xbf5f991c	-0.87343
107	0xbf0e3d2c	-0.5556209
108	0x3f2ccc9c	0.6749971
109	0xbf326e84	-0.69699883
110	0x3ebc7620	0.36808872
111	0x3e807337	0.25087902
112	0x3ecef00e	0.40417522
113	0x3f8cbf86	1.0995948
114	0x3ef3beae	0.47606415
115	0xbde75a9c	-0.11296579
116	0xbe7423cd	-0.23841782
117	0x3ef33c56	0.4750697
118	0x3f569a1f	0.8382892
119	0xbda64b0f	-0.08119785
120	0xbf2833ae	-0.65703857
121	0xbe3399d0	-0.17539144
122	0xbee910c1	-0.45520595
123	0xbe1c15d6	-0.15242705
124	0x3da68dd6	0.08132522
125	0x3f1168d9	0.5680061
126	0x3e977a9b	0.29585728
127	0xbe853fb3	-0.2602516
128	0x3ee469d3	0.44611987
129	0x3f2c6a7a	0.6734997
130	0xbe3e84aa	-0.18605295
131	0xbea7e746	-0.32793635
132	0x3d4e2741	0.050330404
133	0x3ef2aec5	0.47398964
134	0x3f3561b2	0.70852196
135	0xbd8085d8	-0.06275529
136	0x3e5b5016	0.21417269
137	0x3c9e07df	0.019290863
138	0xbebf299f	-0.37336442
139	0xbf026fcb	-0.5095183
140	0x3f08c187	0.534203
141	0x3e0ece41	0.13945867
142	0x3d4e6fc6	0.050399564
143	0x3eb77cd0	0.35837412
144	0x3f3b46fa	0.73155177
145	0x3decd61f	0.11564278
146	0x3f812610	1.0089741
147	0x3f4f956f	0.8108739
148	0x3f544955	0.82924396
149	0x3eb24cfc	0.3482436
150	0x3f4d67cb	0.802365
151	0x3e890dbf	0.267683
152	0xbea19ad4	-0.31563437
153	0x3e9c6ad6	0.3055026
154	0x3efe6cf2	0.49692494
155	0xbf03deac	-0.51511645
156	0x3ec84460	0.39114666
157	0x3fc453de	1.5338094
158	0x3f679ace	0.9047059
159	0xbea42f47	-0.3206732
160	0xbe100ab9	-0.1406659
161	0xbe84201c	-0.25805748
162	0xbefe34d6	-0.49649686
163	0xbd1c2881	-0.038124565
164	0x3f6f2b4a	0.9342543
165	0xbe225e36	-0.15856251
166	0x3f71ea19	0.9449783
167	0xbf507338	-0.8142581
168	0x3f5fde9f	0.8744907
169	0x3d196790	0.03745228
170	0x3f8f8b09	1.1214305
171	0x3c7a669f	0.015283256
172	0xbe594d22	-0.2122083
173	0x3f1405e2	0.57821476
174	0xbf2f205e	-0.68408763
175	0x3fa3e572	1.2804396
176	0xbe1baa0f	-0.15201591
177	0x3ef72042	0.48266798
178	0x3f3f94d4	0.7483647
179	0x3f282503	0.65681475
180	0xbf14ae12	-0.5807811
181	0x3f37e9a7	0.718409
182	0xbe3f64bc	-0.18690771
183	0x3ef34d96	0.4752013
184	0xbb8ef5a2	-0.004362778
185	0x3f06cbb6	0.5265459
186	0xbf3c0aa5	-0.7345374
187	0x3f26257b	0.6490094
188	0x3cca2880	0.024677515
189	0x3f8340c5	1.0254141
190	0x3f9144e6	1.1349151
191	0x3f0a3ad5	0.5399602
192	0x3f708482	0.9395219
193	0x3db8950c	0.090128034
194	0xbd2b6c18	-0.041851133
195	0x3fdd6203	1.7295536
196	0x3f02a6bf	0.51035684
197	0xbd7af458	-0.06126818
198	0x3dac4c75	0.084130205
199	0xbf011df0	-0.50436306
200	0xbf2fb191	-0.6863032
201	0xbf10db6f	-0.5658483
202	0xbf080e07	-0.53146404
203	0xbe51c63e	-0.2048578
204	0xbc0b6432	-0.008507775
205	0x3f14e4dc	0.5816171
206	0x3ee4971c	0.44646537
207	0x3e7e6952	0.24844864
208	0xbedc8bd4	-0.4307543
209	0x3e36c7c8	0.17849648
210	0x3f3c089f	0.73450655
211	0xbf051b6b	-0.5199496
212	0xbf0f95a7	-0.56087726
213	0x3f968eba	1.1762307
214	0x3ed9c882	0.42535788
215	0x3f09db26	0.5385002
216	0x3f0c0a45	0.5470317
217	0xbcfe265b	-0.031024149
218	0x3f1ff6b1	0.62485796
219	0xbe1b9e09	-0.15197004
220	0xbedf8368	-0.43654943
221	0x3dc99c28	0.098442376
222	0x3db01dce	0.08599435
223	0xbf34a513	-0.70564383
224	0x3f512743	0.81700534
225	0x3f107095	0.56421787
226	0xbde3bb34	-0.111196905
227	0xbf4cc288	-0.7998433
228	0x3f726b82	0.94695294
229	0x3f2073f1	0.6267691
230	0x3ea8821c	0.32911766
231	0x3cc2d75a	0.023784328
232	0x3eb2e032	0.34936672
233	0x3e08946e	0.13337871
234	0x3eed940e	0.4640202
235	0x3e2a3998	0.16623533
236	0xbeda1142	-0.42591292
237	0x3f5235a8	0.8211312
238	0x3e558268	0.20850527
239	0xbf1ea122	-0.6196462
240	0x3f088432	0.53326714
241	0x3b5c011a	0.0033569993
242	0x3f5da8b3	0.8658554
243	0x3ec8e3ce	0.392363
244	0xbf0a3de7	-0.54000705
245	0x3f5b4be3	0.8566267
246	0xbd95a8b5	-0.07307569
247	0x3e0b4919	0.13602103
248	0x3f719605	0.94369537
249	0xbf369043	-0.71313876
250	0xbdb3c6cc	-0.08778152
251	0xbe40119e	-0.1875672
252	0x3f1190d7	0.56861633
253	0x3eb06e58	0.34459186
254	0x3f654272	0.8955451
255	0xbf1c9a23	-0.61172694

l1.bias f4 [8]
0	0x3f0a6991	0.5406733
1	0x3f875bd5	1.05749
2	0x3f4251a5	0.7590583
3	0x3f09d5cc	0.53841853
4	0x3f4dc634	0.8038056
5	0x3f326b95	0.6969541
6	0x3f61072d	0.87901574
7	0x3f91f756	1.1403606

l2.weight f4 [8, 8]
0	0xbfd82f5f	-1.6889457
1	0xbf1b9561	-0.6077481
2	0x3fd2b025	1.6460005
3	0xbf266542	-0.6499826
4	0xbe4795d9	-0.19490756
5	0x3eee5018	0.46545482
6	0x400d15ee	2.2044635
7	0x3f8c98a0	1.0984077
8	0x3edc72db	0.43056378
9	0x3efb2801	0.49053958
10	0xbf259fad	-0.6469677
11	0x3fb37c55	1.4022318
12	0xbf6219ee	-0.88320816
13	0xbf7d5707	-0.9896092
14	0x3db26a22	0.087116495
15	0x401ab855	2.4175007
16	0x3e38c19b	0.18042605
17	0x3fd47002	1.6596682
18	0x3f6ce784	0.92540765
19	0xbf8e37ef	-1.111082
20	0x3fffb98a	1.9978497
21	0xbefdb008	-0.49548364
22	0xbe3b2b0d	-0.18278141
23	0xbd4fa692	-0.050695963
24	0x3ff4f762	1.9137995
25	0x3f40f878	0.75379133
26	0xbed26656	-0.410937
27	0x3f6df07b	0.9294507
28	0x401deb17	2.4674737
29	0xbfdb9e58	-1.7157698
30	0x3ecb66bc	0.39726818
31	0x3ed1d7ae	0.40984863
32	0x3fe70ef9	1.8051444
33	0xbd4ea55e	-0.050450675
34	0xbed93e82	-0.42430502
35	0xbbcd31d9	-0.006262046
36	0x3fbad346	1.4595726
37	0x3fd372cc	1.6519408
38	0xbd411b40	-0.04714513
39	0x3f0a4552	0.54012024
40	0xbfad0b20	-1.351902
41	0x3fc5ee71	1.5463392
42	0x3f928d28	1.1449327
43	0x3fff3dfe	1.9940794
44	0xbf96fda4	-1.1796155
45	0x3f6814a9	0.90656525
46	0xbfa62e2e	-1.2982843
47	0x3d068c87	0.03284886
48	0x3cb1b72e	0.021693792
49	0x3f8a5594	1.0807366
50	0x3f929de6	1.1454437
51	0x3f61a904	0.8814852
52	0xbf6ec701	-0.93272406
53	0x3ff6d383	1.9283298
54	0x3f7faf9b	0.9987733
55	0xbf55d65f	-0.8353023
56	0x3dea7196	0.11447446
57	0xbde7b3a7	-0.11313563
58	0xbec1553b	-0.37760338
59	0xbdbc2dec	-0.091884464
60	0x3dbd399f	0.09239506
61	0xbd45f238	-0.0483267
62	0xbec9e77c	-0.3943442
63	0x3d86a3b7	0.06574195

l2.bias f4 [8]
0	0x3f25f249	0.6482282
1	0x3f0e701b	0.5563981
2	0x3f62c615	0.885835
3	0x3eebf1f2	0.46083027
4	0x3ea60ff9	0.3243406
5	0x3f20e54a	0.6284987
6	0x3e99601f	0.29956147
7	0xbe844553	-0.2583414

l3.weight f4 [18, 8]
0	0xbfe53aca	-1.7908566
1	0xbeb9abe1	-0.36263946
2	0x3f6c9ba2	0.92424977
3	0x3f308793	0.6895687
4	0x3e1be9a7	0.1522585
5	0xbfd7b672	-1.6852553
6	0xbfd2170a	-1.6413281
7	0xbed6ee46	-0.41978663
8	0x3e2c82d3	0.1684678
9	0xbed29c0c	-0.4113468
10	0xbff1ec83	-1.8900303
11	0xbf190642	-0.59775174
12	0xbf56ecfa	-0.8395535
13	0x3ea03c0a	0.31295806
14	0x3f1856a1	0.59507185
15	0xbec1d809	-0.37860134
16	0xbfd5e865	-1.6711546
17	0xbe9ac1af	-0.30225894
18	0xbfd04a71	-1.6272718
19	0xbfea049f	-1.828266
20	0x3f43f19e	0.76540554
21	0x3f58307f	0.84449
22	0x3e6feefc	0.23431009
23	0xbea37f78	-0.31933188
24	0xbf1009b7	-0.56264824
25	0xc0156b77	-2.3346841
26	0xbef6d900	-0.48212433
27	0xbf03ee95	-0.5153592
28	0x3f20d478	0.628242
29	0xbe119be6	-0.14219627
30	0x3edf2bde	0.43588156
31	0x3dd6f242	0.10495426
32	0xbfad46ba	-1.3537209
33	0x3f3c0f5e	0.7346095
34	0xbf9c6523	-1.2218364
35	0x3f0cfb58	0.5507102
36	0x3f4703e6	0.77740324
37	0xc0005ca8	-2.0056553
38	0xc00678a6	-2.1011138
39	0xbe217893	-0.15768652
40	0x3f1e83e9	0.6192003
41	0xbf89920d	-1.0747696
42	0xbfdd28fa	-1.727813
43	0xbfa40ec0	-1.2817001
44	0x3f7cf5f1	0.98812777
45	0xbfcdc16c	-1.6074653
46	0x3e718ada	0.23588124
47	0xbc4a89f1	-0.012361989
48	0xbfb6b2d2	-1.4273322
49	0x3f042f23	0.51634425
50	0xbfe2bee0	-1.77145
51	0x3f09bd2c	0.5380428
52	0xbf025137	-0.50905174
53	0x3eac8903	0.33698282
54	0xbea50f71	-0.32238343
55	0x3e0287d2	0.12747124
56	0xc02c620e	-2.6934848
57	0x3d4b9bbf	0.049709078
58	0xbe8d1b86	-0.2756006
59	0x3e8b72a3	0.27235898
60	0x3f477a3f	0.7792091
61	0xbf1fa8b0	-0.6236677
62	0x3d40bf33	0.04705734
63	0x3e050a17	0.1299213
64	0xc02f87b0	-2.7426567
65	0xc0264db3	-2.5984924
66	0x3f0d15c5	0.5511134
67	0x3ecf7ec5	0.40526405
68	0x3e8614d4	0.26187766
69	0xbed6c163	-0.41944417
70	0x3f03db46	0.5150646
71	0xb9b055d0	-0.0003363327
72	0xbf24c5ae	-0.64364135
73	0xbe9d94f1	-0.30777696
74	0x3dc8bc59	0.098015495
75	0xbd614eb8	-0.055006713
76	0xc059b7be	-3.4018397
77	0x3f4645ec	0.7745044
78	0x3e4ec505	0.20192344
79	0x3da3d1fb	0.07999035
80	0xbfa55330	-1.2916012
81	0xbf60d2ea	-0.8782183
82	0x3f50da66	0.8158325
83	0x3edeca8f	0.43513915
84	0xbf8d2c9b	-1.1029238
85	0x3e4ff3be	0.20307824
86	0xbeacc4bd	-0.3374385
87	0xbe3e2d91	-0.1857207
88	0xbf219734	-0.6312134
89	0xbfb57559	-1.4176437
90	0x3e67b24a	0.22626606
91	0xbdb58cd2	-0.0886475
92	0x3f986de1	1.1908532
93	0xc0288b7e	-2.633514
94	0x3e5b9314	0.21442825
95	0xbe70dd95	-0.23522027
96	0x3efd6ca0	0.49496937
97	0x3f093694	0.53598905
98	0xbe93ffd0	-0.28906107
99	0x3e1140f4	0.14184934
100	0xbf6d2490	-0.92633915
101	0xbf89f016	-1.0776393
102	0xbf0f504c	-0.559819
103	0xbd817dc8	-0.06322819
104	0xbf9701f1	-1.1797467
105	0x3f026571	0.5093604
106	0xbde349ef	-0.11098086
107	0xbe417db4	-0.18895608
108	0xbf2b0782	-0.6680833
109	0x3e89eb2d	0.26937237
110	0x3ce3503a	0.027748216
111	0xbd521eef	-0.05129903
112	0x3e5546b0	0.20827746
113	0x3cb0b0d2	0.02156869
114	0x3eaf4058	0.34228778
115	0xbfe93aef	-1.822111
116	0xbefe8ba6	-0.49715918
117	0xbbd13264	-0.006384181
118	0xbedb78da	-0.4286564
119	0x3e8181cb	0.25294337
120	0x3f2709c8	0.652493
121	0xc0057a31	-2.085583
122	0x3f24a08b	0.6430747
123	0xbfeafef3	-1.8359054
124	0xbf7e1f0c	-0.99266124
125	0xbf437ce6	-0.76362455
126	0x3f04b733	0.5184204
127	0xbd1fa8ad	-0.03897922
128	0x3f21e505	0.6324008
129	0xbfeddb28	-1.8582506
130	0x3f2bd58c	0.6712272
131	0x3eaeaf86	0.3411829
132	0xbf737132	-0.950946
133	0xc00d00e4	-2.2031794
134	0xbe71f2f1	-0.23627831
135	0x3e18a8a2	0.14908078
136	0xbf5908ba	-0.8477894
137	0xbffd3b51	-1.9783727
138	0x3d9ed16f	0.0775479
139	0xbefa21de	-0.48853964
140	0xbf96f288	-1.1792765
141	0x3f537eff	0.82615656
142	0x3ee10a5d	0.4395322
143	0xbeb53e20	-0.3539896

l3.bias f4 [18]
0	0xbe038d5d	-0.12846895
1	0xbf17c88f	-0.59290403
2	0x3eeb0b9c	0.45907295
3	0xbf0a588a	-0.5404135
4	0x3cbecd2d	0.023291195
5	0x3e6229af	0.22086214
6	0xbd8f48ee	-0.06996332
7	0xbeaed2f6	-0.34145325
8	0x3d8ece33	0.06972923
9	0xbeadd3bf	-0.33950612
10	0x3e38ae45	0.18035229
11	0x3eb3f6e3	0.35149297
12	0x3e074d1b	0.13213007
13	0xbeed0399	-0.46291807
14	0xbe465cb8	-0.19371307
15	0xbd6cdeba	-0.057829596
16	0xbe54e3b3	-0.20789985
17	0xbf096f46	-0.53685415
